dataset/cace-lr-fit-0211150/fit-4hdnnp-Au2-MgO-Al/sr/best_model.pth (torch, 194210 bytes, 13 tensors)

embedding_weights f4 [4, 4]
000000 b8 f9 de 3e f4 e3 8c 3e e8 3b 84 be 7b 63 a5 3e
       0.43549895 0.27517664 -0.25826955 0.3230246
000010 0f 26 b1 be b7 52 61 3d 6c f0 53 be ec 4c af 3e
       -0.3459935 0.055010524 -0.20697182 0.34238374
000020 14 55 da 3f 86 ef 8e bf f7 37 fe 3d 6b fb b8 3e
       1.7057214 -1.1166847 0.12413018 0.36129317
000030 21 eb 43 3f 0a c2 aa 3e 01 57 5a 3f ff 15 85 3e
       0.76530653 0.33351165 0.8528901 0.25993344

embedding_weights f4 [4, 4]
000000 d0 e8 39 3b ed 52 d3 3b f0 02 f5 3a 4f 5d 3d 3e
       0.0028367527 0.0064490945 0.0018692892 0.18492626
000010 90 d7 88 bb f5 e1 a7 b8 f9 bb 0f be 1e 62 12 3e
       -0.0041760877 -8.005268e-05 -0.1403655 0.14295241
000020 12 8a 5c bc 54 98 e2 3a 2b 69 2e 3e 35 b7 f4 3d
       -0.013460653 0.0017287829 0.17032306 0.119490065
000030 39 b3 88 3e 75 18 29 3b 5d 15 a4 bc c4 98 1d bc
       0.26699236 0.002580193 -0.020029718 -0.009618942

bessel_weights f4 [6]
000000 6d fe 84 3e 95 0e 71 3f 02 d0 8c 3f dd fa 11 40
       0.2597536 0.94162875 1.1000979 2.2809365
000010 d8 4c 3a 40 2c 00 5b 40
       2.9109402 3.4218855

0 f4 [6, 12, 16]
000000 78 f4 1b 3e 37 b4 cc 3d 88 f8 1c 3e bd 2b b0 3d
       0.15229976 0.09995311 0.15329182 0.086020924
000010 26 de cb 3d 45 69 62 3d 22 1d f7 bb 8b ed f5 bc
       0.09954481 0.055276174 -0.0075413147 -0.030020496
000020 f3 20 b6 bd 3b e3 93 3c f0 3c 33 3c cf 95 0f 3d
       -0.08893003 0.018052688 0.010939822 0.035054978
000030 d2 2a 82 3d fc 41 bf bc 6d c1 24 3d f7 f2 b9 3c
       0.063558236 -0.023346893 0.040223528 0.022698862
000040 eb a4 e8 3d 33 d3 3c 3e 5d 38 91 3c f7 8f 9e 3d
       0.113595806 0.18439941 0.017727071 0.07742303
000050 28 3d 2c 3d 08 26 c7 3d 4a cb ed bc 83 84 bb 3c
       0.04205051 0.09724051 -0.0290276 0.022890335
000060 71 4d c1 3d f1 ec f9 3c 75 c4 c4 3d b3 8a 7e 3b
       0.09438599 0.03050849 0.09607784 0.0038839995
000070 ec 33 9b bc 51 08 0d 3c 3e 09 ac be c9 8f ad be
       -0.018945657 0.00860794 -0.336008 -0.33898762
000080 e1 84 a6 3d e6 e4 c5 3d 6d b4 19 3e 1f 7d 62 3d
       0.081308134 0.096627995 0.15010233 0.055295106
000090 2b a7 10 3e 59 5c a6 3c f1 ce 28 bd 25 07 85 3b
       0.1412627 0.020307707 -0.04121298 0.0040596896
0000a0 50 31 3d 3e 1e 80 1b bd e1 ea 8c bf 40 94 09 3c
       0.18475842 -0.03796398 -1.1009179 0.008397162
0000b0 46 8c 27 3c 3b 0a 80 3d 29 4e 27 3c 01 3d f9 3c
       0.010226315 0.06251951 0.010211506 0.030424597
0000c0 a5 74 05 3e bf f0 8b 3d 5d 0d 2a 3e c1 fb c5 3c
       0.13032778 0.06833028 0.1660666 0.024167897
0000d0 10 90 1f 3d d3 b1 ee 3c 1f 84 61 bd 7e 13 10 bd
       0.038955748 0.029137528 -0.05505764 -0.03517484
0000e0 56 56 7e bd 48 77 0b 3e cb 4b 9b 3e 74 59 d0 ba
       -0.062094055 0.13619721 0.30331263 -0.00158958
0000f0 1f 87 f9 3e 41 63 96 bb 71 4c 3e bd 70 9e 0c 3d
       0.48735902 -0.0045894687 -0.04645962 0.034330785
000100 bd c7 4c 3e f8 d3 07 3d b0 94 0e 3e d0 a2 8a 3d
       0.19998069 0.033161134 0.13923907 0.06769335
000110 22 19 22 3e c4 84 6f 3a b7 00 0b 3c 5b f1 6e be
       0.158299 0.000913691 0.008484057 -0.23334257
000120 49 51 a3 3d f3 8d 01 3e 16 ad 20 bd a0 e0 01 3c
       0.07974488 0.12651806 -0.039227568 0.00792709
000130 b1 5b e3 3a 8d 5d 06 3d b8 ef 58 3c fe da 00 bf
       0.0017346052 0.03280406 0.013240747 -0.50334156
000140 ef 88 70 3e ad 5d 28 3e db 41 19 3e 12 b4 09 bc
       0.23489736 0.16441984 0.14966528 -0.0084047485
000150 93 41 77 3c b4 f4 71 bd 18 18 02 bd 05 d5 eb 3c
       0.015091318 -0.059071258 -0.03176126 0.028788099
000160 7d 55 37 3e 49 ea 46 3d 0c ba 23 3d 0c 7c 72 bf
       0.17903705 0.048563275 0.03997235 -0.9472053
000170 d2 e6 ff 3c 6d 62 d1 3d e0 2b 63 3c fa b1 c5 3c
       0.031237993 0.10223851 0.013865441 0.024132717
000180 04 e4 89 3d 54 c9 17 3d 62 a9 41 3e 78 c7 97 3d
       0.06732944 0.037057236 0.1891227 0.074110925
000190 5c d2 21 ba 0f 7c d7 3d d4 12 49 3b b4 f4 21 3d
       -0.00061730086 0.10521709 0.0030681388 0.039540008
0001a0 06 47 16 3e 53 69 07 3e 59 cc 97 3c 8b 2b 1b 3b
       0.14675531 0.13223772 0.018530058 0.0023677077
0001b0 07 c2 6c 3b 8f 7b 10 bd 9c cc d1 bc e1 f4 2f bc
       0.0036126391 -0.035274085 -0.02561026 -0.010739536
0001c0 87 dd ab bc c0 4f 8d 3d 3b 26 0f 3e 30 33 94 3c
       -0.020979656 0.06899977 0.13979428 0.018090814
0001d0 97 36 30 3d 0a 9b 75 3d 09 2a 30 bd 95 f7 07 bc
       0.04302081 0.05996231 -0.043008838 -0.008298774
0001e0 25 8a 8d 3e 84 9e c7 3d b5 63 4d 3d fa 95 1d bd
       0.27644458 0.09747031 0.050143916 -0.038473107
0001f0 92 f5 4a bd f1 e6 43 3d 11 98 f0 39 19 e6 c5 bc
       -0.0495506 0.047827665 0.00045889665 -0.02415757
000200 42 e3 a0 3d 1a 12 a8 3d f9 1e 42 3e 3a 9d 83 3d
       0.07855846 0.082065776 0.18957128 0.06426473
000210 63 97 8c 3b 18 a2 85 3a b1 d3 83 bd 16 c0 c1 bc
       0.0042905076 0.0010195402 -0.06436861 -0.023651164
000220 23 f6 14 3d e8 23 17 3e 69 b3 35 3d 61 07 c2 3c
       0.036367547 0.14759791 0.044360552 0.02368516
000230 74 d0 60 bd 0d c4 5d bd 47 ca 1c bd e7 47 c7 3c
       -0.054886296 -0.054142047 -0.038278844 0.024326278
000240 62 2b 5c 3d 2d fe d2 bc d0 62 c3 3d ee ba 56 3d
       0.05375231 -0.025755966 0.09540331 0.052424364
000250 f3 51 3d 3d 47 e8 9e bc 36 72 62 bd db ac 96 3b
       0.04622073 -0.019397868 -0.0552847 0.0045982427
000260 4d 83 af 3d e3 f6 ef 3d c9 55 ad 3d d6 a0 0a bd
       0.085699655 0.11717012 0.08463628 -0.03384479
000270 99 9d 3d bd 26 65 39 3d 8f 50 12 bd 07 39 10 3d
       -0.046292875 0.04526248 -0.035721358 0.035210636
000280 9b d2 31 3e 9c c0 3c 3e 70 a6 38 3d 59 97 8e bb
       0.17365496 0.1843285 0.045080602 -0.004351538
000290 28 f4 30 3c 06 5e cc 3b c9 5a 81 3c a8 98 ed bc
       0.010800399 0.0062367944 0.01579036 -0.029003456
0002a0 54 79 ad 3e 10 7d ea 3d e1 1c 37 3d 7e 6a d8 3c
       0.3388163 0.11449635 0.044705275 0.026417967
0002b0 ce d0 db bb 7c f0 38 3d 62 82 b4 bc 96 01 59 3c
       -0.006708241 0.04515122 -0.022034828 0.013245007
0002c0 04 65 05 3e 82 47 bc 3d 3c 3f 23 40 26 5d 27 3d
       0.13026816 0.091933265 2.5507345 0.040860318
0002d0 4c 6b 7b 3d d2 e4 5b 3d 78 81 ff 3b 3c bd dc 3b
       0.061381623 0.053685017 0.0077974163 0.0067364257
0002e0 e8 f0 4a 3d 90 d1 a0 3c 70 d9 49 ba 42 6c 4a bb
       0.049546152 0.019631177 -0.0007699942 -0.003088728
0002f0 5c 78 4e 3d 20 84 f2 3c f0 15 b9 3c bb b7 5f 3c
       0.050407752 0.029604018 0.022593468 0.013654645
000300 38 78 a2 be dd 13 49 be 8d 95 97 be 11 91 1f be
       -0.31732345 -0.19636483 -0.29606286 -0.15582682
000310 bd ea 3f be ba ef ee bd 4b c7 35 3c b5 96 76 3d
       -0.1874189 -0.11666818 0.011094878 0.06020232
000320 b3 0e c2 3e 29 8a da bc 92 47 d5 bc b4 f4 8e bd
       0.3790184 -0.026677208 -0.026035104 -0.06980267
000330 c9 a9 8c be 93 38 79 3d f4 54 a9 bd 56 0c 51 bd
       -0.27473286 0.06084497 -0.08268157 -0.051037155
000340 a1 30 26 be b0 57 b6 be 9d 5c 17 bd 1d 4f 15 be
       -0.16229488 -0.35613775 -0.036953557 -0.1458096
000350 79 9d 9e bd 4a 1a 42 be d9 81 7c 3d 88 7b 32 bd
       -0.07744879 -0.18955341 0.06164727 -0.04357484
000360 f9 bb 80 be 1e 9c aa bd 97 89 40 be 26 9b 2d bc
       -0.25143412 -0.08330558 -0.18802486 -0.010596072
000370 c7 a4 94 3c 19 e3 f5 bc ad 22 42 3f 2c d7 9b 3e
       0.018144978 -0.030015515 0.7583416 0.304376
000380 d1 fc 3c be 82 0e 2d be 0b 65 91 be b8 0e d3 bd
       -0.18455817 -0.16900066 -0.28397402 -0.10305542
000390 cf 78 88 be 68 73 33 bd 42 be a9 3d 41 57 16 bc
       -0.2665467 -0.04381123 0.08288242 -0.009176076
0003a0 df 17 9d be 5a f9 94 3d 43 d0 42 40 93 c8 cb bc
       -0.30682275 0.072741225 3.0439613 -0.024875915
0003b0 f4 d2 0b bd 9e 26 e3 bd 9e de 0f bb dc 4c 6a bc
       -0.034136727 -0.1109135 -0.0021952759 -0.014300551
0003c0 85 3b a3 be f6 30 03 be c9 7a a9 be f3 62 30 bd
       -0.31881347 -0.12811646 -0.3310149 -0.043063115
0003d0 e3 22 86 bd 8a 54 5a bd 59 10 e1 3d b5 d0 89 3d
       -0.06549623 -0.05330328 0.10989446 0.06729261
0003e0 5b 6e e3 3d 7f 68 8d be 26 1e 18 bf c0 f4 b3 ba
       0.11105033 -0.27618787 -0.59421 -0.0013729557
0003f0 22 02 88 bf ad c3 52 3c 2f 8d a9 3d 0e ee 90 bd
       -1.0625651 0.012864036 0.08278882 -0.07076655

1 f4 [6, 12, 16]
000000 fb ba 28 c0 d9 aa 7f 40 0f 2b 3b 3e 63 6f a1 40
       -2.6364124 3.9948027 0.18278144 5.044847
000010 3a ae ae 40 87 24 81 3d 93 34 82 3d 4d e0 c7 c0
       5.458768 0.06305795 0.06357684 -6.2461305
000020 0f f2 e1 3f 7e 1f 22 3e e0 29 39 3d f6 8a 09 c0
       1.7651995 0.15832326 0.04520595 -2.1491065
000030 6d f0 0f bd 32 1c a4 3e 4b a1 af 3f fb 7e 5f 3e
       -0.035141397 0.3205276 1.3721098 0.21825783
000040 31 1c c2 be ae 75 02 3e 64 a4 3f bd 66 6a ce 40
       -0.37912133 0.12740204 -0.046787634 6.450488
000050 cc ae 1b bf 32 a8 fb 3b 61 93 8e bf c8 d3 9f c0
       -0.60813594 0.0076799626 -1.1138726 -4.994602
000060 0f 09 00 3f 47 1a d6 bc 5e 8e 74 3f 42 24 8d be
       0.5001382 -0.026135577 0.95529735 -0.27566725
000070 94 c3 87 3e ae a6 34 bd 9e 16 97 40 31 00 9b 3d
       0.26516402 -0.04410427 4.721511 0.07568396
000080 40 11 cc b9 bc 54 45 bd b0 e7 30 bd 15 56 2b 3e
       -0.00038922764 -0.048176512 -0.043189704 0.16732056
000090 c4 8e 2c 3e 36 67 35 3e 7d 83 80 40 e9 ba e7 bf
       0.16851336 0.17715153 4.016051 -1.8103915
0000a0 9d 6f 08 be 4b 1c cb 3e 83 72 18 bf c0 27 23 3d
       -0.13323827 0.39670023 -0.5954973 0.03983283
0000b0 fc b0 c7 3e 76 f7 18 be 52 48 97 3f 5a c0 04 bf
       0.39002216 -0.14938149 1.1818945 -0.51856005
0000c0 9e b8 1f 3e f0 f5 11 be d6 82 23 c1 55 c0 99 3f
       0.1559777 -0.14253974 -10.219442 1.201182
0000d0 f1 3f 85 3e a4 b6 12 3f 62 e2 10 c0 0d 0d 8d 3e
       0.26025346 0.5730994 -2.2638173 0.2754902
0000e0 16 98 38 3d 52 75 15 bf 56 de af 3f 59 8b 16 bf
       0.045066915 -0.5838214 1.3739727 -0.5880638
0000f0 77 ab 13 40 d1 ee 3c 3e 27 0b 1c 3f c8 a9 1b 40
       2.3073404 0.18450476 0.6095452 2.4322376
000100 65 99 28 c0 05 d1 c6 3d 11 64 b6 3c 43 91 a9 40
       -2.6343625 0.09707836 0.022264512 5.298982
000110 a2 d1 1a 3e 3d 10 05 bd 58 0e e3 c0 7d e3 d7 bd
       0.15119031 -0.03248619 -7.095501 -0.10541437
000120 1e 3c 81 be 0e 6d 4f bb 81 05 73 40 a7 73 d5 40
       -0.25241178 -0.0031650695 3.797211 6.6703677
000130 1a e9 89 3e 2a 02 73 bd 97 0d a8 3d 8e 9e fe bf
       0.26935655 -0.059328236 0.08205717 -1.9892137
000140 87 19 17 41 53 86 81 3e 82 c6 51 40 d5 f6 23 c1
       9.443732 0.25297794 3.277741 -10.247762
000150 de f6 b5 3e b7 2c 54 3b e0 5b 09 3e d7 ca 10 bc
       0.35539907 0.0032375285 0.13413954 -0.008837423
000160 63 9b bf be cd 01 d0 3d 36 55 bb 3e 7b dd ef bf
       -0.37423238 0.101565935 0.36588448 -1.8739465
000170 3a 38 66 3e 01 68 5e 3e ba 56 7f 3f 48 c4 7f 3f
       0.22482386 0.21719362 0.9974171 0.99908876
000180 8e e1 bb 40 be b7 a4 3e 02 be ed 3f 06 6d 69 be
       5.8712835 0.32171434 1.8573611 -0.22795495
000190 e8 6f 83 3e bd 0c b8 bd ce e3 21 3c c0 e4 1e 3e
       0.25671315 -0.08986805 0.009880973 0.15516949
0001a0 fc 0e d7 3e 1d 02 60 be 34 cd 1e 3e 96 49 c7 bd
       0.4200362 -0.21875806 0.15507966 -0.09730832
0001b0 9a 42 28 3d fa 10 7b bc 06 cd 32 be 5e 6c bc c0
       0.04107914 -0.015323872 -0.17461023 -5.8882284
0001c0 79 6b 11 41 ee 92 69 bd 1f d7 9c 3e 01 1d bf 40
       9.088738 -0.05702489 0.30632874 5.9722905
0001d0 2f be fd 3d 88 01 37 3e af 74 53 c0 08 21 f6 3e
       0.1238979 0.17871678 -3.3039968 0.48072076
0001e0 6c f0 f9 3d 65 a4 c1 3e e7 b2 3a bf 78 03 93 c0
       0.1220406 0.37820736 -0.72929233 -4.5941734
0001f0 59 3c 87 3f 99 a4 1a be 51 73 61 3e 0a 9a af 3d
       1.0565292 -0.15101852 0.22016646 0.085743025
000200 53 5f 4b be db 5f 2a be 98 d2 a3 3d b3 be 3f 3f
       -0.19860582 -0.16638128 0.07999152 0.7490036
000210 4f 66 da 3e 6b 37 51 be 6b a6 3f c0 f1 bb 63 40
       0.4265618 -0.20431297 -2.9945323 3.558346
000220 8d 26 45 bd e5 85 26 be 19 ff d6 3d 38 f6 00 be
       -0.048132468 -0.16262014 0.10497875 -0.12593925
000230 37 22 ab 3e 9f d0 bd 3d b5 dd 55 be 5f 3c 10 40
       0.3342454 0.09268307 -0.20885356 2.2536848
000240 53 c0 09 bd f7 98 a5 3e 24 1e 1c 40 97 b0 c1 be
       -0.03363068 0.32343265 2.4393396 -0.3783004
000250 7d 66 b5 bf bc 9e d5 3e 73 3a aa 3d 09 e6 b6 be
       -1.4171902 0.41722667 0.083119296 -0.35722378
000260 30 6f 49 3f 46 63 ae be 78 5c 77 c0 66 5f f0 3f
       0.78685284 -0.34060115 -3.8650188 1.8779113
000270 0f 28 b6 be 0a 66 0f 3e 29 64 ca bd d8 e9 ff 3f
       -0.35577437 0.14003769 -0.09882385 1.9993238
000280 d1 df 4e 3e e4 d6 35 3a 73 fb 84 3b 52 c3 dc 3e
       0.20202567 0.0006936623 0.0040582954 0.43117768
000290 89 6f 58 bd 77 bc 20 be e5 0c f9 3d 08 0d 4c bf
       -0.052840743 -0.15696894 0.121606626 -0.79707384
0002a0 0b ce 7e 3e b3 ff 82 be 43 3d 45 c0 5d cf 99 bf
       0.24883287 -0.25585708 -3.081864 -1.2016407
0002b0 b5 33 b8 3d 01 d9 04 3f 72 67 e9 3f 7e 80 c9 3f
       0.08994237 0.5189362 1.8234694 1.5742338
0002c0 23 39 49 be d7 0e 64 3e 4d b6 10 c0 68 f0 b0 3e
       -0.19650702 0.22271286 -2.2611268 0.34558415
0002d0 30 18 71 3e 31 e9 32 3f 96 11 91 bf e5 f6 e8 bf
       0.23544383 0.6988707 -1.1333492 -1.8200346
0002e0 58 fb 4d 3e 3b d1 bf 3e d8 6f 47 c0 0b 98 c6 c0
       0.20115411 0.37464318 -3.1162014 -6.20606
0002f0 fd c7 5a bd d9 5e 14 3f 46 26 2b 3e c0 33 7c 40
       -0.05341338 0.57957226 0.16713819 3.9406586
000300 ec 6c 9b 40 fb 54 c3 c0 3b f5 bd be e7 8d f1 c0
       4.857046 -6.1041236 -0.37101158 -7.548572
000310 1c a1 4f 40 77 92 9f bd 63 72 a7 bd 6b bd 2c bf
       3.2442083 -0.07791608 -0.081761144 -0.6747653
000320 0c 18 b0 be 97 50 a4 be 24 64 7a bd 2f 15 3f 40
       -0.34393346 -0.32092735 -0.061130658 2.985668
000330 21 3f 2a 3e 5f 20 66 bf 9d 7a 9f c0 1a 66 06 bf
       0.16625644 -0.89893144 -4.9837174 -0.52499545
000340 4d 4f db 3d 8b b8 88 be 9d 47 ec 3d a2 da 5e c0
       0.10708485 -0.26703295 0.11537097 -3.4820943
000350 b7 da 82 3f df 01 27 3e 86 8e 71 40 8b ef 49 40
       1.0222996 0.16309308 3.774324 3.1552455
000360 49 b9 79 bf da e6 4a bd b6 f9 6f 3d a0 77 fa 3e
       -0.9754835 -0.049536563 0.058587752 0.48919392
000370 78 33 a9 be 3d 8b 2b be 56 26 08 c1 1c a6 04 40
       -0.3304708 -0.16752334 -8.509359 2.0726385
000380 1b 77 7a 3e 3d e4 94 bc 08 3a 93 3d b5 f7 9d be
       0.24459498 -0.018175239 0.07188803 -0.30853048
000390 36 da 00 bf 75 8f 18 3e 69 65 f8 3f db 8f b1 40
       -0.50332963 0.14898475 1.9405948 5.5488105
0003a0 d5 8d c8 3e fa a4 37 bf dc 32 af 40 d4 a6 f1 bd
       0.3917071 -0.7173611 5.4749584 -0.11799398
0003b0 b0 dc 4a bf 92 4c 88 3e 73 95 dd 40 78 57 9c 40
       -0.7924299 0.2662092 6.9244933 4.8856773
0003c0 c8 35 aa be ee cb f2 bd 6c a6 21 41 0a 5f 2c c0
       -0.33244157 -0.11855303 10.10313 -2.6933007
0003d0 d4 be 12 bf 19 11 96 bf be 9e 77 40 10 a1 03 bf
       -0.5732243 -1.1723968 3.8690639 -0.51417637
0003e0 b1 df 66 be 51 4a bc 3f 7d 20 11 be 90 0a 04 40
       -0.22546269 1.471018 -0.1417255 2.0631447
0003f0 66 81 f8 3f b9 ba 39 be a3 17 3d bf 12 d7 07 3e
       1.9414489 -0.18137635 -0.7386419 0.13265637

2 f4 [6, 12, 16]
000000 39 43 64 c0 64 c6 75 3e 41 17 b3 3e 50 cb ec c0
       -3.566603 0.24001461 0.3497868 -7.3998184
000010 61 93 7b c0 77 74 03 bf e9 31 bf 3d cb 9e 27 40
       -3.9308703 -0.51349586 0.093356915 2.619067
000020 e8 7a 2f 3e 4d 1e 53 3e 95 95 41 be bd df 7e be
       0.17136729 0.20617028 -0.18904717 -0.24890037
000030 8f 9b b8 3d 66 dd 73 be dc 41 a0 3f 85 c4 f6 bc
       0.090140454 -0.23814926 1.2520099 -0.030123005
000040 94 ab 10 40 85 3a 62 3e 94 23 af 3e 63 d1 b1 bf
       2.2604723 0.22092636 0.3420683 -1.3892025
000050 40 c9 19 bf 3a 78 26 3f f3 75 b4 bc ed b4 92 3f
       -0.6007271 0.650272 -0.022028899 1.1461464
000060 97 91 c5 bc 13 ef fb 3d 1c ad 6b 40 d6 7e e5 bc
       -0.024117274 0.12301459 3.6824408 -0.028014582
000070 6b 3a 64 3d d3 32 31 be 7b 29 49 40 62 fa f0 3e
       0.055719774 -0.17304544 3.1431568 0.47066027
000080 03 0c 11 40 8d cb cd 3e f2 7f f6 3c 1a ef 7f 3e
       2.2663581 0.4019436 0.030090306 0.24993554
000090 a3 e0 7f 3e 5a 88 61 3e 40 1e fc bc 95 b4 0f bf
       0.24988036 0.2202467 -0.030776143 -0.5613492
0000a0 4d 72 05 40 b6 6c 0c 3e 8c 0a 7d 3f f7 db 81 3d
       2.0851014 0.13713345 0.9884422 0.06340783
0000b0 5c 93 6d 3e f7 95 dd 3c b0 4f 87 3f c9 e7 65 3f
       0.23200744 0.027049048 1.0571194 0.898068
0000c0 1e 22 10 3f f1 a8 e4 be 3e 05 a0 c0 cb a1 87 40
       0.5630206 -0.44660142 -5.00064 4.2385
0000d0 3d c6 dc 3e e4 b6 e1 3e f4 09 cb 3e 19 86 25 3d
       0.43119994 0.44084847 0.3965603 0.04041109
0000e0 b3 b7 75 3e 48 5b 10 3d 44 42 b7 3f 4e 2e 0c bf
       0.23995857 0.035243303 1.4317098 -0.54758155
0000f0 e1 eb 6b bf be f1 75 3e 0e 3b 9d 3f c2 bc 77 3f
       -0.921568 0.24017999 1.2283647 0.96772397
000100 68 51 c0 40 35 b4 61 3e 06 4d 2a c0 4e 1f c9 c0
       6.0099373 0.220414 -2.6609511 -6.2850714
000110 89 39 97 3e 37 21 a3 3e eb ff 1d bf 27 d5 67 3d
       0.29536083 0.31861278 -0.61718625 0.056599762
000120 23 9e e9 3d 94 ad 9e 3e 1c eb 16 c0 85 ea 2c 40
       0.11407115 0.30991805 -2.3581 2.701814
000130 b1 dc e2 3e d0 06 00 3c 90 5b 12 bd 28 a9 ae 3d
       0.44309 0.007814124 -0.035731852 0.08528358
000140 12 95 90 3f 15 c7 c9 3e 8f bb 33 40 27 cc 30 c0
       1.1295493 0.394097 2.8083227 -2.7624605
000150 60 98 5c 3e 22 4b 5c 3e 94 39 a9 3d fe a4 01 c0
       0.21542501 0.21513036 0.08262935 -2.0256953
000160 bd 05 8c bd 33 46 14 3f 00 73 6e 3f 78 32 36 be
       -0.06837032 0.57919616 0.93144226 -0.1779269
000170 36 88 ed 3d 21 53 26 3e de 81 1f be 70 0a 9d be
       0.11598246 0.16242649 -0.15576884 -0.30672026
000180 18 76 ca 40 07 dd be 3f 76 7c b4 3f 00 2b 27 3e
       6.3269157 1.4911202 1.4100482 0.16324997
000190 8f 27 a6 40 a4 35 e6 3e 50 b9 3c 3d fd 8c a1 3d
       5.192329 0.449628 0.046075165 0.078882195
0001a0 63 47 1f be 5d 92 a1 3e 54 76 6c bc ef 1b 2c 3d
       -0.15554576 0.3155698 -0.0144325085 0.042018827
0001b0 45 5b f9 3c 24 57 8a bd 2d 99 06 bc c4 6a a3 3e
       0.030439029 -0.06754902 -0.008215231 0.31917393
0001c0 e8 21 20 3e 37 18 36 3f 8c c5 b1 3d 3c f3 25 c0
       0.15637934 0.711307 0.08680257 -2.5929708
0001d0 aa a6 91 3e 0e f3 22 bf 0b 22 8e 3f 87 26 3f be
       0.28447467 -0.6365212 1.1104139 -0.18667041
0001e0 9e ef dd bc 94 c5 3c 3e 5e da aa 3f 52 d8 d6 3f
       -0.027091797 0.18434745 1.334789 1.6784766
0001f0 d7 10 d8 3e 0c 64 9b bc b4 90 39 bd 73 48 be 3c
       0.42200348 -0.018968605 -0.045304015 0.023227906
000200 bd 08 b4 be c8 35 75 3e 25 d3 25 3e c7 0d fb 40
       -0.35162917 0.23946297 0.16193826 7.845432
000210 73 2d 18 3e 98 c6 4b 3f 03 46 42 3f 07 74 bc 3d
       0.14861088 0.79599905 0.7588808 0.09201818
000220 7b 0f 56 bd c1 e5 07 3e a0 9c 3a bd 8f b1 20 c0
       -0.052260857 0.13271238 -0.045559525 -2.5108373
000230 fa c2 4a 3d 34 b1 cd 3d b9 e3 37 3f 69 0a d5 bf
       0.04950235 0.100435644 0.7183185 -1.6643802
000240 57 3c be 3e 31 46 6f 3e d3 59 d5 bf 50 bf 8c 3e
       0.3715541 0.2336662 -1.6668037 0.2748971
000250 c4 90 86 bb ec 73 f1 3a 11 d3 54 be 35 d7 22 c0
       -0.004106613 0.0018421388 -0.2078364 -2.5443852
000260 ff 12 e3 bd 43 1c 02 bf 5f 94 ca 3f 13 af 1c c0
       -0.110876076 -0.50824374 1.5826529 -2.4481857
000270 e2 54 b3 3c 6f 33 5e 3c c6 3a cc bd 79 77 85 bf
       0.021891061 0.013562067 -0.09972148 -1.0427085
000280 07 fe a6 3e 97 b2 c6 3e a9 77 af 3c 3a 43 cd 3d
       0.32615682 0.38808128 0.021419363 0.10022588
000290 39 db e2 3d c2 52 55 3e f7 ea 4b c0 cd 75 2b c0
       0.1107697 0.20832351 -3.186216 -2.679065
0002a0 0f 72 a6 bd a7 71 05 3e 36 96 fd 3f 75 a8 a9 3f
       -0.08127224 0.13031636 1.9811466 1.3254534
0002b0 6b 30 a5 3e fd f0 b6 3d fb 31 b3 3f af fe 27 3f
       0.32263502 0.089326836 1.3999628 0.6562299
0002c0 c8 e3 0d be 0c 39 1e bf e6 8a 82 c0 76 7e 45 3e
       -0.13856423 -0.61805797 -4.0794554 0.19286522
0002d0 29 b9 b9 bf 83 d9 1c 3f 69 80 8b 3e 99 8a 08 c0
       -1.4509631 0.61269397 0.27246407 -2.1334593
0002e0 a2 a7 0e 3f 17 ff 73 3f 0b 5c b8 3e 4b 2f b2 bf
       0.5572454 0.9531111 0.36007723 -1.3920683
0002f0 c2 e7 90 3e 58 4d 3a 3e ff 0f 5f 3d e1 36 24 40
       0.28301817 0.18193567 0.054458614 2.5658495
000300 59 45 5c 3f 61 de 09 bf 81 41 45 bf 61 c7 f3 40
       0.86043316 -0.5385495 -0.77053076 7.6180882
000310 9d ec e5 3f db 54 0b 40 fb a0 3b be 4a 1a 26 40
       1.7962834 2.1770542 -0.18323128 2.5953546
000320 13 84 d5 bb 3d c9 11 bf e9 06 3c 40 e0 f3 ba 40
       -0.0065159886 -0.5694769 2.9379218 5.84227
000330 5f 29 38 be 2c e3 82 3e 61 b6 83 bf fd df 40 3d
       -0.17984532 0.25563943 -1.0290033 0.047088612
000340 9a 45 d8 3e e4 7e c7 be d5 3e 31 bf 23 c9 4a 3e
       0.42240602 -0.38963997 -0.692365 0.1980329
000350 6a 96 69 40 8c 7a 83 bf 7b a1 ec 3d 75 3e d7 3f
       3.6498055 -1.0271773 0.115542375 1.6815935
000360 84 8e d3 bd 36 4b 93 bd 63 24 b2 c0 ef 53 60 3d
       -0.10329917 -0.0719208 -5.5669417 0.054767545
000370 7f 3f 16 be 04 76 98 3e 6f 60 40 40 bc 24 5e bf
       -0.1467266 0.2977754 3.0058858 -0.867748
000380 34 2a 36 c0 85 4f 2a bf 2a f9 8f bd 1a 5e ed be
       -2.8463259 -0.6652759 -0.07029946 -0.46360856
000390 f0 c9 f2 be 20 4e 17 bf 3e bd a7 40 ec 2d 3a 3e
       -0.4741969 -0.59103584 5.241851 0.1818158
0003a0 90 33 78 bf b7 2e 79 be bd 3d 55 bf 18 4e 1e be
       -0.9695368 -0.24334227 -0.8329733 -0.15459478
0003b0 c7 b2 19 bf 26 a4 09 3f de 42 4c bf 9e dc 89 be
       -0.6003842 0.53766096 -0.7978953 -0.2692613
0003c0 7b 28 58 bf 17 37 67 3f 17 fe 8e 3f 83 f8 3e c0
       -0.8443677 0.90318435 1.1171292 -2.983918
0003d0 4b 3a 62 bf 8c cf 7c bf 95 62 0c bf 8f 78 94 bd
       -0.883702 -0.9875419 -0.54837924 -0.07249557
0003e0 98 6f 11 bf a6 58 ae be 6a 21 a8 3e 92 fb 0b c0
       -0.56810904 -0.34052008 0.32837993 -2.1872296
0003f0 f1 a9 08 40 9b 71 f0 be ac 38 1e bf 20 3a 6e c0
       2.1353724 -0.46961674 -0.61805224 -3.7222977

3 f4 [6, 12, 16]
000000 0d c6 4e c0 cb 5b df be eb 9a e6 3d 73 7e 22 c0
       -3.230838 -0.4362472 0.11260017 -2.5389678
000010 f8 55 8f bd 8f c0 5d b8 4b 28 62 bf cc b3 70 3f
       -0.06998819 -5.286984e-05 -0.8834273 0.9402435
000020 3a 7d 5d bd 9e c2 04 3f d1 62 fb bc 1f b3 b7 bf
       -0.054074503 0.5185946 -0.030686768 -1.4351538
000030 58 73 44 bf ba 9f ac 3e 28 29 9c 3f 69 8d 53 bd
       -0.767385 0.33715612 1.220006 -0.05164853
000040 c4 a7 c4 3f 72 9e 6d 3e 7f 55 a1 3e f8 c5 57 c0
       1.5363698 0.23204973 0.3151054 -3.371458
000050 e4 42 4a 3e 0f b6 d8 bd 2d 69 34 c0 b5 6c 81 be
       0.19752079 -0.105816 -2.8189194 -0.2527825
000060 9e 99 61 bc 92 49 19 3e 0b f0 9b c0 a8 90 a9 3e
       -0.013769535 0.14969471 -4.873052 0.33118176
000070 07 5b bb 3e 4b bf fd bd ef c7 5b be e2 a8 c9 3e
       0.36592886 -0.12390002 -0.21462987 0.3938666
000080 81 f5 93 3d 9e 4d a2 3e 68 de 16 3e 0f d0 ba 40
       0.072245605 0.31699842 0.14733279 5.837898
000090 e7 58 11 be 4e c8 0c 3f 40 27 e2 be 63 42 4d c1
       -0.1419407 0.5499314 -0.4417057 -12.828708
0000a0 6e 71 8f be 8c 0b b4 3e f2 c4 8a 3e e5 70 a6 3c
       -0.28016227 0.3516506 0.27103382 0.020317504
0000b0 75 12 77 3d 2a 51 33 3f 9f dc 14 c0 dc 86 8f 40
       0.060320336 0.7004572 -2.3259656 4.4852123
0000c0 7d f4 10 3f 66 7c be 3e 75 5b 1b c0 8d ce 2f c1
       0.5662306 0.37204283 -2.427457 -10.987927
0000d0 8d a7 ac 3e 73 0f ca 3d 6f ed 2a 3e 01 6d 98 3c
       0.3372158 0.09866228 0.16692136 0.018606665
0000e0 78 0d 9a be 36 e2 bc bd 96 23 fe 3f 39 05 5b 3f
       -0.300884 -0.09222834 1.985461 0.85554844
0000f0 09 be 58 3f ac 58 fa 3d 81 6f df 40 92 0e 0a c0
       0.8466497 0.12223944 6.9823613 -2.1571393
000100 92 cc 24 3c 33 e4 07 3f 25 54 e6 3e 69 ef 3f 3f
       0.010058539 0.5308258 0.44986072 0.74974686
000110 4d 6c 37 be 0f b0 75 3d 51 c6 29 40 0f 81 ad c0
       -0.17912407 0.059982356 2.6527293 -5.422004
000120 f2 b7 5f be 53 cb e3 be 81 14 82 40 79 51 8d c0
       -0.21847513 -0.44491062 4.065003 -4.4161954
000130 db 53 5b 3f 27 a2 3d 3e 38 82 0b be ae 1c 09 3f
       0.8567483 0.18518887 -0.13623893 0.53559387
000140 51 b1 c1 bf 72 c5 46 3e 56 c7 59 3f 2a 69 de c0
       -1.5132238 0.19411257 0.8506979 -6.9503374
000150 81 e9 68 3e 6d 0d 97 3e ba 14 37 3d f1 b1 1b bf
       0.22745325 0.2950243 0.0446975 -0.6081839
000160 75 dc 84 3c 42 1f e1 3e 63 ef 79 3f 08 44 4a bf
       0.016218403 0.4396916 0.976309 -0.7901006
000170 bd 50 13 3e 0f c9 8b 3e 34 b8 5d be c5 78 5e 40
       0.14386268 0.27301833 -0.21652299 3.4761212
000180 2f ad db 40 1a 88 ec 3e 8e 4a 40 3e 8a 1f 91 3e
       6.8648906 0.46197587 0.1877844 0.28344375
000190 ee 6f 75 be 4e da 50 be e3 bc ca 3d 04 96 1d c1
       -0.23968479 -0.20395777 0.098993085 -9.849125
0001a0 d4 85 a1 3d 59 fc 79 3e 39 08 87 3d 51 c1 54 bd
       0.07886854 0.24412669 0.06593365 -0.051942173
0001b0 10 b7 88 3d cb 71 07 3f 96 f2 ed 3d dc 9c 61 c0
       0.066755414 0.5290801 0.11618535 -3.525199
0001c0 d4 d4 02 3f 76 fc d1 bf 29 ce 23 3e 9b 0f c1 3f
       0.51106 -1.640517 0.15996613 1.5082887
0001d0 12 ce a4 be 66 3f 0c 3d a3 2f bc 40 b0 d3 3e bd
       -0.3218847 0.03424015 5.880815 -0.0465886
0001e0 d5 31 28 40 d4 6b dd 3d 35 f0 43 c0 de c4 37 3f
       2.6280415 0.10811582 -3.061536 0.7178477
0001f0 fc 43 7a 3e 94 e2 cc 3e be 0b 20 bf 05 03 4b bc
       0.24439996 0.40016615 -0.6251792 -0.012390857
000200 1c c3 a7 3e 89 11 17 3e b8 68 02 3e b9 a0 e1 3e
       0.32766044 0.14752783 0.1273526 0.44067934
000210 04 69 aa 3d 6d 90 da be a9 a8 b3 3f 82 a9 7e bd
       0.083208114 -0.42688313 1.4035846 -0.062173374
000220 05 17 f1 3e c4 a3 73 bf 69 11 77 3e f1 58 30 40
       0.47087875 -0.9517176 0.24127735 2.7554286
000230 f5 cc 82 c0 22 61 65 3d 19 84 a0 3d c6 a0 42 c0
       -4.087519 0.056000836 0.07837696 -3.0410628
000240 6d 66 c1 c0 8c e9 87 bf 33 e3 d9 40 40 f2 9c 3e
       -6.043753 -1.0618148 6.8089843 0.30653572
000250 34 7c 9a bd c9 21 f9 be e9 40 84 40 b1 5f 05 c1
       -0.07543221 -0.4865859 4.1329236 -8.335862
000260 ca c9 84 3f cf 0f 31 3f 40 9d 4d 3f c1 02 20 c0
       1.0374081 0.69164747 0.8031807 -2.500168
000270 0a 8e af bd 1d f2 2a 3d b5 0f f0 3a 70 b5 8c bf
       -0.08572014 0.041734803 0.0018315228 -1.099287
000280 ee 2b 49 3e f0 da 8e 3e 89 32 c5 3e db b6 00 41
       0.19645664 0.2790141 0.38515118 8.044642
000290 7a 83 0b bd 35 5e 90 3e 63 77 51 bd bf 24 b4 be
       -0.034060933 0.28196874 -0.051139247 -0.35184285
0002a0 90 f0 11 3f 2b 73 37 be 29 3a de 3e 79 3d b7 be
       0.57007694 -0.17915027 0.43403748 -0.35789087
0002b0 37 f7 4e 40 d7 a7 c7 3d 29 c6 bd 3f fc b9 66 c0
       3.2338388 0.0974881 1.4826099 -3.6051016
0002c0 c5 b7 db 3e 25 70 86 3e 67 e3 d6 3e 3f 98 36 3d
       0.42913643 0.26257434 0.4197037 0.044578787
0002d0 1b 85 64 bc 04 b5 1a c0 5d 47 bc c0 dd 94 13 3f
       -0.01394775 -2.4172983 -5.8837113 0.5764902
0002e0 a8 20 33 3e a8 ee fd 3e 1a 3c 5a c0 79 e5 de 3e
       0.17492926 0.49596143 -3.4099183 0.4353445
0002f0 56 ef 70 40 10 d4 15 bd 88 e7 b7 40 9f e1 a4 bf
       3.764608 -0.03657919 5.747013 -1.2881354
000300 14 7a 5d 40 72 d0 16 3f 5a 37 53 be 8c 87 76 40
       3.460576 0.5891181 -0.20626584 3.8520231
000310 b2 ea e1 bf 42 6b 58 bd 40 6a 5b 40 de e4 76 40
       -1.7649748 -0.052836664 3.42836 3.857719
000320 6d 2c df 3d d6 10 54 bf 6d ba 72 3e 68 61 53 40
       0.108971454 -0.8283819 0.23703928 3.3028202
000330 69 e7 3b 40 bc da ea be b9 c3 ad bf ea fa 03 40
       2.9359992 -0.45870006 -1.3575355 2.0621896
000340 18 2f fd bf e1 7a 7e bf 23 a6 1a bf c4 9e 33 40
       -1.9779997 -0.9940625 -0.60409755 2.8065653
000350 af 44 f3 be 6d 13 b4 3e 21 b8 92 40 39 c2 f0 3e
       -0.4751334 0.3517107 4.5849767 0.4702318
000360 86 38 6a 3c 3c 64 67 be 36 97 f6 bf 94 57 47 bf
       0.014295703 -0.2259683 -1.9264896 -0.7786801
000370 92 b1 4b bf bd 29 2c bd 6a d5 4f 3f ec be 43 bf
       -0.79567826 -0.042031992 0.8118502 -0.764632
000380 8e 43 f1 3c c7 d2 71 bf 0d 0a 5b be e0 cc 20 c1
       0.029451158 -0.94462246 -0.21390553 -10.050018
000390 25 9e 8c 3e ef 28 63 bf d9 65 9e 3f 1f 41 0a 41
       0.27464405 -0.88734335 1.2374831 8.640899
0003a0 59 91 35 3f 2d b8 1f bf b5 92 37 bf 00 5c 27 bd
       0.7092491 -0.62390405 -0.7170823 -0.040859222
0003b0 0f 2b fb bd 7d 9d 7c bf 44 9e 38 40 d6 2c 84 c0
       -0.12264072 -0.9867781 2.8846598 -4.130473
0003c0 db 09 7d bf e6 80 56 bf f5 d0 99 40 1d 55 4d 41
       -0.98843163 -0.83790433 4.8067575 12.83328
0003d0 cf f7 21 bf ac 2e 59 be 74 f8 b2 be eb 63 b7 bd
       -0.6326875 -0.2120921 -0.3495518 -0.08954605
0003e0 9c a9 ed 3e c9 66 0c 3f 1f ab c4 bf df 4b e0 3f
       0.46418464 0.5484434 -1.5364722 1.7523154
0003f0 ae 62 55 bf 6e fd d0 be 06 47 49 40 7c dd 87 40
       -0.833537 -0.40818352 3.14496 4.2457867

weight f4 [32, 1152]
000000 37 71 e4 bd 9e 8b c4 3c 7b 91 ef 3c 3b 50 bb 3d
       -0.111544065 0.023992356 0.029244175 0.09146162
000010 50 4f c9 bc 85 16 c4 bd 23 c0 15 3c d1 f1 29 3c
       -0.024573952 -0.09574608 0.009140047 0.010372595
000020 20 67 82 bd b0 3d 4b be c7 4a 28 3d 28 29 04 bd
       -0.06367326 -0.1984775 0.04108694 -0.032265812
000030 fa 5f 94 be 73 d2 03 be 44 ac 66 3d b6 cd 2d 3d
       -0.28979474 -0.12873249 0.05631663 0.04243251
000040 8e dc 45 c0 50 e7 05 c0 91 a5 c0 3d fb 39 fb bf
       -3.0915866 -2.0922432 0.09406579 -1.9627069
000050 e7 f3 86 40 16 06 9a bf 3c dc 92 bd 25 76 e7 3f
       4.217273 -1.2033107 -0.071709126 1.808293
000060 98 b4 2e 40 17 ed 8d 3f 96 c1 40 bf 72 65 20 40
       2.7297726 1.1087979 -0.7529539 2.5061917
000070 3e ec cc bf 48 66 f6 bf ff 30 0b c1 e6 fe a2 3e
       -1.6009595 -1.9249964 -8.699462 0.31835097
000080 f4 f7 3d 40 be 02 11 bd 14 4a b9 bc a1 88 da be
       2.9682589 -0.035403006 -0.022618331 -0.42682365
000090 f1 1a ad 3f 6d a7 72 3f 0e 65 1f be 33 23 19 be
       1.3523847 0.9478672 -0.15565893 -0.14954834
0000a0 05 85 aa bf 63 48 0d bf 65 07 1c 40 77 00 12 c0
       -1.3321844 -0.5518858 2.4379513 -2.2812784
0000b0 c6 9e 7f bf 00 b1 f8 bf b8 93 80 40 80 56 33 be
       -0.99851644 -1.9429016 4.018032 -0.17513466
0000c0 c2 3d 63 be 3c 79 83 3f a1 df db 3e 9d ec 42 be
       -0.22191527 1.0271373 0.42944053 -0.19035573
0000d0 5e 65 d2 bd 40 2c 72 3e 63 7d 0d c1 64 e6 9b 3f
       -0.102732405 0.23649693 -8.843112 1.2179685
0000e0 63 62 51 3f a3 bc dd 3f c6 c0 32 bf e2 a1 53 40
       0.8179075 1.7323192 -0.698254 3.3067555
0000f0 37 d7 e8 be 6f 35 c2 be 87 8a 91 c0 cf f4 96 c0
       -0.45476696 -0.37931392 -4.54816 -4.717384
000100 e6 67 b4 bf 3d a7 86 3e a7 9d 00 c0 24 d7 73 40
       -1.4094207 0.26299468 -2.0096223 3.8100061
000110 51 92 21 c1 71 f6 00 bf 85 a7 d3 bf 69 a4 5d c0
       -10.098222 -0.5037604 -1.6535498 -3.4631598
000120 5d 15 b6 3e 8a fe 43 3f b8 82 7f 3f bf 48 80 3f
       0.35563174 0.7656027 0.99808836 1.00222
000130 0d 2f 10 40 39 78 35 3f 45 00 e3 40 ed fa f8 bf
       2.2528718 0.7088657 7.093783 -1.9451576
000140 ec 2e f0 be 72 03 06 c0 12 d8 d3 3f 74 28 14 be
       -0.469108 -2.0939603 1.6550314 -0.14468557
000150 f9 79 24 41 de 95 31 40 58 6b e2 3e e1 cd 56 c0
       10.2797785 2.7747722 0.44222522 -3.3563159
000160 2f e8 97 3f 6f 04 81 bf 3e 1c 6e 3d c9 c8 01 3f
       1.1867732 -1.0079478 0.058132403 0.50697
000170 33 06 6d 3f a7 58 ef 3f 11 bc c1 40 45 fe 2b c0
       0.92587584 1.869893 6.0542073 -2.6873944
000180 da 48 0c be 8a b7 61 be 42 8f 2d bd f6 e2 a3 bc
       -0.13699666 -0.22042671 -0.04237295 -0.020005684
000190 09 98 88 bd 55 1c 2d be bf d1 3a bc 76 93 c6 3c
       -0.066696234 -0.16905339 -0.011402546 0.024240237
0001a0 1c 35 7d bd e2 79 b7 bd 5a 25 da 3c 93 b6 13 bd
       -0.061818227 -0.08958794 0.026629139 -0.03606279
0001b0 9d ea 0f 3d 17 5b df bd a1 9b a2 bc 57 90 12 3f
       0.035135854 -0.10906046 -0.0198496 0.57251495
0001c0 75 5e 0e 3f 5f ac 09 bf c1 87 62 be 5c f5 55 40
       0.5561288 -0.5377864 -0.22122099 3.3431005
0001d0 b8 c3 b2 bf f8 b0 cc be 76 dc 6f c0 1f 30 17 40
       -1.3965979 -0.39978766 -3.7478309 2.362312
0001e0 ea 63 d9 be f4 ab 8e bf e7 7f 97 40 68 64 0c 3e
       -0.4245904 -1.1146226 4.734363 0.13710177
0001f0 f3 58 81 bc e3 09 9a bf 5f 59 e3 c0 cc 3e 3f be
       -0.015789485 -1.2034267 -7.1046596 -0.18676299
000200 e3 e4 8d be 38 0b b5 be 52 53 e2 bd d5 ee 18 40
       -0.2771369 -0.35360122 -0.11051048 2.3895772
000210 bb 5e da c0 b3 48 e0 be ef 04 b3 3d 71 42 3b 3f
       -6.824064 -0.43805465 0.087411754 0.73148257
000220 0a ff 94 bf b2 93 e6 bd 7b cb 35 c0 f2 01 bd 3c
       -1.1640332 -0.112586394 -2.8405445 0.023072217
000230 fd ea 36 be 89 6f f9 3e 2c 9f f1 3e 50 52 1a c0
       -0.17863078 0.48717907 0.4719175 -2.411274
000240 8b 10 11 40 fd e0 e2 be 1c 34 2a 3f c9 f4 35 3f
       2.2666347 -0.44312277 0.6648576 0.7107664
000250 5b 80 11 3f ed 94 46 bf 92 59 80 bf c3 eb cc 3d
       0.5683648 -0.7757099 -1.0027335 0.100059055
000260 e2 9c 4d 3f 14 d9 cf 3d 2d 62 96 bf 02 dc 1c be
       0.8031751 0.10148826 -1.1748711 -0.15318301
000270 99 b9 f7 be 77 b8 77 bd ba 3d 9c bf 99 b7 82 bf
       -0.48383787 -0.060478654 -1.2206337 -1.021228
000280 8c c7 2e c0 66 c1 2b 40 70 a7 ce 3f 1c 2d 22 41
       -2.7309294 2.683679 1.6144848 10.136013
000290 98 f9 0a 40 e1 33 38 3f fc f1 bd bf de 4a 38 40
       2.171484 0.7195416 -1.4839473 2.8795695
0002a0 39 cc 26 40 81 1d 4a c0 39 a1 a7 c1 0a a9 8b 3f
       2.6062148 -3.1580508 -20.953722 1.0910962
0002b0 77 f1 62 bc 8c 0f 10 40 cf 94 19 c1 9a 7a 59 3f
       -0.013851515 2.250949 -9.59883 0.849527
0002c0 41 0e 19 40 71 97 36 40 78 b6 05 bd 00 51 7e 40
       2.391495 2.8529932 -0.03264472 3.9736938
0002d0 c5 8a 1b 40 55 f3 af be fc 63 1b 3f 8c e2 99 be
       2.4303448 -0.34365335 0.6069944 -0.30055654
0002e0 b5 2f 87 be 10 d3 b7 bf 73 2e 21 c1 a0 6e 1f 3f
       -0.26403585 -1.4361286 -10.07384 0.62278175
0002f0 e5 a8 24 bf 7f a3 4f 3f 15 9c 3e c0 41 d7 3a 3f
       -0.6432021 0.8110885 -2.9782765 0.729847
000300 fa 31 7a bc ec 70 15 3d 65 da c0 3c 7c d8 10 bc
       -0.015270704 0.036484644 0.023541639 -0.008840676
000310 57 c6 5a be d8 07 97 3d 3b 49 17 3d a5 87 c3 3c
       -0.21364723 0.07374543 0.036935072 0.023868391
000320 5d 3c 84 be 5e 47 be bd 16 dc 08 40 5e 6e 5c bd
       -0.25827304 -0.09290956 2.138433 -0.05381619
000330 a9 d7 f6 bc 67 f6 87 be 74 db 6a 3d 55 ca 53 be
       -0.030132132 -0.26555178 0.057338193 -0.20682652
000340 56 92 9a be c6 e9 a7 bf 23 48 e3 3d 10 93 96 3c
       -0.3018977 -1.3118217 0.11097743 0.018380672
000350 60 51 b3 be eb 87 b5 be f9 71 cb be 86 f2 d7 3f
       -0.35023022 -0.3545526 -0.39735392 1.6870887
000360 3d d8 e6 be d5 f8 ae 3f c7 ba 07 c0 a4 c2 82 3d
       -0.45086852 1.3669688 -2.120775 0.06384781
000370 07 89 09 bf cb a9 af be 1f 1b a6 bf bc 12 ee bf
       -0.5372471 -0.3430923 -1.2977027 -1.8599467
000380 15 63 aa c0 a0 d6 b2 3e a1 67 93 3e 89 df 15 3e
       -5.324595 0.3492937 0.2879 0.14636053
000390 b3 33 66 be dc 51 ad 3e 86 c2 b6 3f 4c 3a ea bf
       -0.22480659 0.33851516 1.4278114 -1.8299041
0003a0 cb 58 46 be 74 ab 7c be 3a d0 12 bd 13 bd 54 be
       -0.1936981 -0.24674779 -0.03584311 -0.20775251
0003b0 87 c6 6b bf 76 3b a4 c0 93 41 44 3f c2 0b 11 3f
       -0.92099804 -5.1322584 0.7666256 0.56658566
0003c0 03 02 0e bf 8e 16 0c bf 31 c1 16 3f d0 cb 61 c0
       -0.5547182 -0.54721916 0.58888537 -3.5280647
0003d0 f5 42 f8 3c 99 c7 62 be 0c d1 bc c0 38 38 94 3f
       0.030305365 -0.22146453 -5.9005184 1.1579657
0003e0 ce fd 1e bf ba 8a 82 bf 29 42 3e be 2e 19 fb 3d
       -0.62106025 -1.0198586 -0.18579926 0.12260662
0003f0 d5 47 1c 3e 00 20 73 3f 8f 2a 9f bf 61 82 f1 bf
       0.15261777 0.94970703 -1.2434863 -1.8867913

bias f4 [32]
000000 20 cc 21 bf b4 7f 6b c0 09 65 78 c0 1d 7c 2d c0
       -0.63202095 -3.6796694 -3.8811667 -2.7107003
000010 2d ee 83 c0 9b 54 17 bf 10 ae 2e c0 b6 55 7b bc
       -4.122824 -0.5911347 -2.729374 -0.015340259
000020 f2 68 e2 bf 8e 94 8a c0 25 59 76 c0 a2 08 45 c0
       -1.7688277 -4.330634 -3.849191 -3.078652
000030 17 34 80 c0 27 d4 0d bf 7a 15 1a c0 73 24 fd bf
       -4.0063586 -0.55401844 -2.4075608 -1.9776748
000040 a0 4a 2f c0 34 1f 09 3e 32 fa b1 be a5 7a e5 be
       -2.7389297 0.1339081 -0.34761196 -0.44820133
000050 2c a4 93 c0 b0 37 67 c0 c1 21 f8 be e9 51 95 bf
       -4.6137905 -3.612774 -0.48463252 -1.1665622
000060 71 cf 6f bf 2c ca 93 bf 43 02 19 be c7 cc 32 c0
       -0.93675905 -1.1546073 -0.14942269 -2.7937486
000070 48 76 28 c0 df eb 58 c0 42 09 3c c0 ff da 81 c0
       -2.6322193 -3.3893964 -2.938065 -4.057983

weight f4 [16, 32]
000000 ca cb 5e 3b 07 48 fd bc 12 69 1d 3c 6b 42 85 be
       0.003399598 -0.030918134 0.00960757 -0.26027235
000010 02 dd db 3d d6 d8 0e bd 66 66 13 be 6e d3 10 bd
       0.10735513 -0.03487476 -0.1439453 -0.035357885
000020 b9 5e 77 3d 86 a2 7d 3e 9a e3 cf be 29 f4 27 bd
       0.06039307 0.24769029 -0.40603334 -0.041004334
000030 75 be a7 be 42 f4 00 bd cb 39 f6 bd de 1f 05 bc
       -0.32762495 -0.031482942 -0.12022742 -0.0081252735
000040 01 16 13 3e 52 99 08 3c b6 2f 9a 3c 09 7a 06 3c
       0.14363863 0.008337336 0.018821578 0.008207806
000050 4c 07 bb 3d 42 28 06 3e a0 c0 80 3b e2 59 23 3d
       0.09132251 0.13101295 0.0039292127 0.03988064
000060 20 53 32 3d b9 15 de bd 53 35 b3 bc a5 96 20 bd
       0.043536305 -0.10843987 -0.021876013 -0.039206166
000070 74 4d b2 3c 58 a5 42 3d ab 1e e7 bc 34 23 59 3d
       0.021765448 0.047520965 -0.028212866 0.053012088
000080 eb 27 85 bc 9f b6 e8 bd 23 21 04 3e 40 99 85 bd
       -0.016254386 -0.11362957 0.12903266 -0.06523371
000090 0c 15 35 3d 23 f3 22 bd fc bd 6a 3e aa fe 88 bd
       0.044209525 -0.039782654 0.22924036 -0.06689198
0000a0 b9 ea 43 bd af c8 2b 3e d7 34 ea bd 9a f5 1e bd
       -0.04783127 0.16775773 -0.1143586 -0.038808443
0000b0 87 37 05 3e af 8c 82 39 d1 bc 2f 3d 69 08 33 3e
       0.13009463 0.0002490035 0.04290468 0.17483677
0000c0 85 ce 13 3e da f2 99 3c 02 8e 4b 3d 49 d1 b7 3b
       0.1443425 0.018792558 0.049695976 0.0056096655
0000d0 02 b4 ef be 43 7b 00 3e 0f 44 bf bc 0a 70 fd 3c
       -0.46817023 0.1254702 -0.023347883 0.030937213
0000e0 58 cf d8 bc 66 8b 52 be 29 cf 25 3c b1 94 b9 3c
       -0.026466057 -0.20560989 0.010120192 0.02265391
0000f0 21 0b aa 3d ad b5 bf bd 50 ef 6b bd 4c 02 28 3d
       0.08302904 -0.09360824 -0.057601273 0.041017815
000100 d5 91 01 3d 6c a7 aa bd 02 0e e9 3c 47 06 12 be
       0.031633217 -0.083327144 0.028449062 -0.14260207
000110 5e ce 04 be d8 2e 4c 3c 7c 2f ec 3e 75 26 1b bd
       -0.12969348 0.01246234 0.46129978 -0.037878472
000120 3e 48 93 bd 6c 5d ff 3d 75 f2 a3 3d e3 ee 90 be
       -0.071915135 0.12468991 0.080052294 -0.28307256
000130 0a 63 ca bd 37 40 cf 3a 67 25 75 3d 2d e5 37 3d
       -0.098821715 0.0015811984 0.059850123 0.044896293
000140 22 8b 62 3e 8f f8 0b bc fa a3 25 3d e1 7b 8b bb
       0.22123387 -0.008543148 0.040439583 -0.004256711
000150 9a 30 b0 be fe 1c 7b bd bc af 11 bc 89 78 50 3d
       -0.3441208 -0.061306946 -0.008891996 0.0508962
000160 71 9e 04 bd d9 01 74 bd f7 f8 57 bc 6c 6f 7e 3d
       -0.032377664 -0.059572075 -0.013181916 0.06211798
000170 5d 1d 17 3d 30 4c 0a 3d e3 41 69 3d 70 f8 e1 3d
       0.036893237 0.033764064 0.0569476 0.11033714
000180 d2 d1 4c be 6c f1 0b c1 01 56 a2 3f bd 3a a8 bf
       -0.20001915 -8.746441 1.2682496 -1.3142926
000190 25 ac b2 bf 68 fa 13 c0 e4 be bf bf a7 02 20 c0
       -1.3958784 -2.3121586 -1.498013 -2.500162
0001a0 af c7 9f c0 cd 3c d2 40 3a 39 0f c0 64 2c a9 3f
       -4.9931254 6.569922 -2.2378678 1.3216672
0001b0 93 0f 29 40 60 4c 5c 3d 2a 11 8b 3f 62 94 34 c0
       2.6415756 0.053783774 1.0864613 -2.8215566
0001c0 da 1c 3d 3e fe 64 52 bf f8 d2 e9 3d e4 70 23 c0
       0.18468037 -0.8218535 0.11417192 -2.5537653
0001d0 f8 19 95 c0 11 3c 7d c0 00 7c e7 be de ef 81 bf
       -4.65942 -3.9567912 -0.45211792 -1.0151327
0001e0 35 f7 1d 3f dc d1 7d 40 30 6c 05 be c5 98 1e 3b
       0.61705333 3.9659338 -0.13029552 0.0024199944
0001f0 03 f8 b5 c0 df 87 31 3b 74 b3 88 40 d7 e9 94 c0
       -5.686525 0.0027089042 4.271906 -4.653545
000200 ac 88 db bc 75 f1 8b 3e e3 8c 43 3e 0a 6f 61 be
       -0.026798569 0.27332655 0.19096713 -0.22015014
000210 d9 f7 40 be 33 00 cd 3c 84 f0 c1 3e 2d 83 08 3d
       -0.18844546 0.025024509 0.3787881 0.033328224
000220 86 84 8d bd 0a 95 f1 bc 10 98 85 3e e5 38 8d be
       -0.069100425 -0.029490013 0.26092577 -0.2758247
000230 90 b5 e8 3d 6e 8e 81 3d ac 14 18 3e 0e bf 65 3d
       0.11362755 0.063259944 0.14851636 0.056090407
000240 83 64 73 3d d4 bc 9d bc 94 03 5f bc 77 dd 35 3b
       0.059422027 -0.01925508 -0.013611693 0.0027750412
000250 8f ad b6 be 69 ab e6 bd c0 ec 94 bd eb 26 b6 3c
       -0.3567929 -0.11263163 -0.07271719 0.022235354
000260 e9 13 6b bd 45 7d 9b 3d 06 a7 83 bc 21 d1 8b 3c
       -0.057392035 0.07592253 -0.016070854 0.017067494
000270 61 c4 aa bc 91 03 1b 3e 6b b7 df 3d 3e 17 2c be
       -0.020845594 0.15138079 0.10923656 -0.16805741
000280 5f a8 76 bf 3e 6b 45 c0 f3 3c e9 40 14 83 87 c0
       -0.96350664 -3.0846705 7.28869 -4.2347507
000290 24 2d 3d 40 83 53 bd bf c3 05 c6 40 dc 9c 2a bf
       2.9558802 -1.4791111 6.1882033 -0.666456
0002a0 97 79 f5 bc 9f 3b cf bd c0 d8 8a bf 74 39 62 c0
       -0.029965205 -0.10118794 -1.0847397 -3.5347567
0002b0 ea d0 ba 3f 5b cb c6 bf 6d 52 48 3f a2 35 d1 3d
       1.4595006 -1.5530809 0.7825077 0.10215308
0002c0 cb c8 4c c0 03 51 56 3e 9a 1b 15 3e e7 80 9e bf
       -3.1997554 0.20929341 0.1456131 -1.2383088
0002d0 64 11 af 3f 8a ae 7b c0 a6 4f 1d 3f 74 15 2e bf
       1.3677182 -3.932528 0.6144966 -0.68001485
0002e0 33 e8 28 3f 36 b4 2e 3f be 41 4b bf aa 24 32 40
       0.6597931 0.6824373 -0.7939719 2.7834878
0002f0 75 57 5a c0 57 80 b0 bf 33 75 42 40 04 74 59 c0
       -3.411588 -1.3789166 3.0384033 -3.397706
000300 db 92 b3 bd f2 60 e5 bf a7 87 8d 3f f4 f2 04 bf
       -0.08768245 -1.792021 1.1057023 -0.5193322
000310 31 d9 46 3f 18 0b 0e be 52 47 96 c0 e3 c6 f3 3f
       0.7767516 -0.1387142 -4.696206 1.904507
000320 b4 4b 60 c0 96 0c be bf 33 e5 96 bf 21 67 c4 3f
       -3.5046206 -1.4847591 -1.1788696 1.5343972
000330 84 07 3e 3f 9d e7 d6 3e a7 01 0f c0 72 54 a3 bf
       0.7423022 0.41973582 -2.2344759 -1.2760146
000340 95 12 59 3e 3a da d6 be 18 c1 0d c0 f2 cb ab 3e
       0.21198495 -0.4196337 -2.2149105 0.33554035
000350 33 7f 06 3f 48 44 10 40 ed 08 92 be c5 fc c0 3f
       0.5253784 2.2541676 -0.28522435 1.5077139
000360 e6 39 1a c0 06 d9 89 c0 62 02 f8 bd e1 90 b2 be
       -2.4097838 -4.307742 -0.121098295 -0.3487616
000370 c9 ef 17 c0 c3 4b 7f 40 72 75 06 41 35 42 0a 40
       -2.3740103 3.9889991 8.403673 2.160291
000380 f1 18 30 bc 09 ec cb 3e 36 8f 84 bd 94 49 0b 3e
       -0.010748134 0.39828518 -0.06472628 0.13602287
000390 32 83 16 3e 9e 54 70 bd 4c 62 80 3d 7e 56 90 3c
       0.14698485 -0.058674447 0.06268749 0.017619368
0003a0 7a 2b 8c 39 52 95 34 3d 24 8d 5c bd fc dd 82 bc
       0.00026735273 0.044087715 -0.05384554 -0.015974991
0003b0 34 c4 2c bd 5b cd ae bc be 13 d4 3b 39 0d 5f be
       -0.0421793 -0.021338155 0.00647208 -0.21782388
0003c0 f5 59 8d 3d 0c 89 62 bc 28 39 39 3d 7f 5b cd bc
       0.069019236 -0.01382662 0.045220524 -0.025068043
0003d0 1f 4c 61 be 80 e7 6d 3e 52 3c 6f 3d 45 02 44 3d
       -0.22001694 0.23232841 0.058407135 0.047853727
0003e0 be f9 9d 3c de 2a c9 bd af 73 b4 3b f6 45 2b 3c
       0.019284125 -0.098226294 0.0055069546 0.010453692
0003f0 c1 1e 9d bd 41 bb 93 3d 7c f4 d7 3c 4b 7c 21 3e
       -0.076718815 0.0721345 0.026361696 0.1577007

bias f4 [16]
000000 6c 8d 82 bc 3d 35 84 bc 93 6c a1 ba f7 33 27 c0
       -0.015936576 -0.016138667 -0.0012315683 -2.6125467
000010 6b c1 65 3c 83 0a 63 c0 2d 70 ca bf db 63 97 3c
       0.014023165 -3.5475166 -1.5815483 0.018480232
000020 6c c8 07 c0 20 c6 2f 3c eb 4e ea be 4a 63 65 3b
       -2.1216078 0.010728389 -0.45763335 0.0035001808
000030 b8 c7 73 be ea 68 bc bb 73 a6 38 c0 02 20 84 3c
       -0.23806655 -0.0057498114 -2.8851593 0.016128544

weight f4 [1, 16]
000000 5a 20 56 b8 fe 9f b3 b8 c1 a7 ae 38 98 b9 cb bd
       -5.1051706e-05 -8.565186e-05 8.328213e-05 -0.099475086
000010 44 1c f9 38 61 32 3b 3f eb c4 8a 3e 53 d6 80 38
       0.0001187851 0.7312375 0.2710336 6.1434366e-05
000020 ec f3 db be 0f b1 47 b8 15 7a 96 3e 48 69 6c 38
       -0.42959535 -4.7610196e-05 0.29390016 5.6364835e-05
000030 c0 3c 08 3e 1f ba 62 b7 19 cb 51 3f cf 7c 50 b9
       0.13304424 -1.3513984e-05 0.8195053 -0.0001988292
